supervisor/models/hey_buddy.onnx (onnx, 205430 bytes, 9 tensors)

layer1.weight f4 [32, 1536]
000000 8d 2e 06 bd 66 d2 a8 3c 5b a4 4f 3d fd 01 9f bb
       -0.032759238 0.020608138 0.05069385 -0.004852532
000010 0a 90 f7 3b e0 28 d2 3c 66 a5 81 bc 53 65 1a bc
       0.0075550126 0.025654256 -0.015825938 -0.009423572
000020 9c 64 0a 3d 1c f2 1c 3d 4b 7d 4d 3c a5 e9 9c bc
       0.033787355 0.03831683 0.012542079 -0.01915438
000030 b8 e4 8d bb a6 aa 18 bd c5 13 a6 bc 2e e4 a6 3c
       -0.004330244 -0.037272118 -0.020273099 0.020372476
000040 3a 86 7c bb 15 96 67 bc ca 81 45 bb 58 99 80 bb
       -0.0038532154 -0.014134903 -0.0030137175 -0.00392453
000050 f3 d2 a2 3c 21 44 ee bb 5c 2a 47 bc b6 1d e1 3c
       0.019875979 -0.007271305 -0.012156095 0.027479988
000060 16 13 95 3c 8f ab 80 3c 56 ec b7 bb 2c 80 1c 3d
       0.018197577 0.015706806 -0.0056128902 0.03820817
000070 c3 e1 84 bc d3 0a 5e 3c a2 81 54 bc dd 9c 94 3b
       -0.016220933 0.013552385 -0.01297036 0.004535301
000080 b9 e6 54 bc 9b 3c 18 3d e6 09 25 bc 25 55 b7 bc
       -0.012994462 0.037167173 -0.010073161 -0.022379467
000090 53 cf 36 3a 24 35 df 3c 18 76 32 bd dd a5 d4 3a
       0.0006973643 0.02724702 -0.043569654 0.0016223748
0000a0 a8 f6 41 3c 58 e0 ba bc 0f f4 fe 3c 63 ff e8 bc
       0.011838593 -0.022812054 0.031122236 -0.02844209
0000b0 70 34 d1 3c ce a8 5c 3c a3 41 1a bc df b1 46 3d
       0.0255377 0.013467981 -0.009415063 0.048509475
0000c0 14 76 24 3c 9b 7c 19 bc b1 97 f0 bc 6b ed 05 3d
       0.010037918 -0.009368087 -0.029369207 0.032697123
0000d0 0d 5e 78 39 11 ae 53 3c f8 fb 2a bc e4 32 32 3c
       0.0002368616 0.012919919 -0.010436051 0.010876391
0000e0 97 7a 3a bc ff 58 34 3d 30 12 da bb 97 b5 31 3d
       -0.011381767 0.044030186 -0.006655 0.04338607
0000f0 60 bd a6 bc 4e 6f 29 3d 71 30 a4 bc 93 c5 0b bc
       -0.020353973 0.041365914 -0.02004263 -0.008530992
000100 67 63 93 3c f9 55 65 bc 04 fb 23 bc fa 0b 4f bc
       0.017991735 -0.013997548 -0.010008577 -0.012637133
000110 12 af 22 bd fe 1a b9 3c 10 9f 6f bd aa c8 ad 3c
       -0.03971774 0.022595879 -0.058501303 0.021213848
000120 a0 23 5e 3a ba 59 96 bc 74 d0 b4 3b 83 02 d5 bc
       0.00084739365 -0.018353332 0.0055180136 -0.026002174
000130 71 3a c3 bc 43 36 04 bc 28 22 bf bc a7 e1 85 bb
       -0.023831578 -0.008069578 -0.023331717 -0.0040857377
000140 37 8d 3b 3d a8 7c b4 3c e5 09 c1 3c 65 e2 39 bb
       0.04578897 0.022032097 0.023564288 -0.0028363701
000150 aa 43 29 ba ab fb 13 3d 3c df 95 3a 66 d1 72 3c
       -0.0006456921 0.03612868 0.0011434327 0.014820432
000160 8a 30 0e bd 31 52 04 bb eb 05 da bc b0 3a 81 3c
       -0.03471426 -0.0020190591 -0.02661415 0.015775055
000170 f4 17 49 3c 6c 9d e0 bc 80 e6 b0 3c 88 d1 08 3c
       0.012273777 -0.027418815 0.021594286 0.008350737
000180 ac 44 06 bd 1e a8 20 bc da 91 37 3c 30 c4 82 3c
       -0.032780334 -0.009805707 0.011204207 0.01596269
000190 d0 8e ad bc 52 10 f8 bb 27 9b 5d 3c 29 78 b2 3b
       -0.021186262 -0.007570305 0.013525761 0.005446453
0001a0 29 b1 f8 3c 45 2a 70 b8 d4 cf b8 ba bc 27 1f bc
       0.030357914 -5.7259826e-05 -0.0014100024 -0.009714063
0001b0 e7 66 b0 bc 9e ee ec bc f6 3d 0c bc f8 82 13 bd
       -0.021533443 -0.028922375 -0.0085596945 -0.036013573
0001c0 ae c6 a0 3c 88 cb a2 3c b2 9d 5c 3d 93 ab e2 3b
       0.019625988 0.019872442 0.053861327 0.006917426
0001d0 8e 83 c7 3a a7 d9 47 3c 55 e8 7b bc 7e c2 fd bb
       0.0015221701 0.012197888 -0.0153752165 -0.0077441325
0001e0 26 58 55 bc 8b cd bb 3c 12 da 21 b8 7f 50 27 3d
       -0.0130215045 0.022925159 -3.8588485e-05 0.04084825
0001f0 8a 88 ed bb 40 59 ab 3c 8b a7 13 bd 99 64 d0 bc
       -0.0072489427 0.020916581 -0.036048453 -0.025438594
000200 13 9a 3a bc 81 f4 4e 3c cc f1 3c bc 28 08 2c bb
       -0.011389273 0.012631536 -0.011532258 -0.0026249979
000210 a3 f2 b4 b9 0b 85 af bb c2 03 58 bc fe a3 ae 3b
       -0.00034513054 -0.005356436 -0.01318449 0.005329608
000220 c7 63 85 3c 99 1b 4c 3d 55 4d d7 3c 53 8a 49 bc
       0.01628293 0.049831007 0.026281992 -0.0123010455
000230 36 e7 4b 3a 63 64 0d bc 00 92 1a 38 f0 f7 a6 3c
       0.00077782886 -0.008629891 3.6852434e-05 0.020381898
000240 d9 50 e4 3c 9f 1f 34 bd 27 b3 fc bc 77 8b 62 3b
       0.027870582 -0.04397547 -0.030847145 0.003456799
000250 f9 9c a7 3c 32 8c aa bb 70 d9 c4 bc 3a 08 4b 3b
       0.020460593 -0.005204701 -0.024029464 0.0030980245
000260 83 a4 8c 3c 5e ee f8 3c 4e 56 9e bc ae 25 95 3c
       0.017168289 0.0303871 -0.019328263 0.018206444
000270 6b 89 07 3c 99 6f 95 bb de b6 09 bd af 39 32 3d
       0.008272509 -0.0045604226 -0.03362166 0.043512043
000280 5d 4d 8b 3c 30 b7 37 3c 9c 0e 83 bb c5 6b fb bc
       0.017004663 0.011213109 -0.0039995443 -0.030691037
000290 87 50 9e bc 43 5b 45 3c 0f ec 00 bd 95 0c 02 3d
       -0.019325508 0.012045684 -0.031475123 0.03175028
0002a0 96 4f cc 3c 31 cb fb bb b9 c3 87 ba 87 bb 93 bb
       0.024940293 -0.0076841344 -0.0010358013 -0.004508439
0002b0 45 d3 53 bc 2e e5 eb 3c 5f 5c 9c bc 99 2b 30 bb
       -0.012928789 0.028795805 -0.019087015 -0.0026881455
0002c0 fc b2 d3 3c ec 9b 3c 3d ce 89 12 3b 50 07 f0 bb
       0.025842182 0.046047136 0.002235997 -0.0073250905
0002d0 06 17 a5 3c 8e 34 98 3c c3 0e 0e 3d a4 aa 4d 3d
       0.02015258 0.018579748 0.034682047 0.050211564
0002e0 14 b0 d7 3c e0 45 95 3c 81 ef f4 3b 91 e5 4b 3a
       0.026329078 0.018221796 0.00747484 0.00077780435
0002f0 04 d4 d5 3c 31 df 59 bd 12 33 85 3c 1b f0 f9 39
       0.026102073 -0.053191368 0.016259704 0.00047671873
000300 86 76 0b bd fc 4a a8 3c b0 8e 3e bc 90 01 9b 3c
       -0.03404858 0.020543568 -0.011630699 0.018921643
000310 ff 33 21 bc 4a dd 24 bc 72 ff e6 3b d7 be b6 3b
       -0.009839057 -0.010062525 0.0070494944 0.005576949
000320 cb 85 f4 3b 78 8c 21 bb 3e e1 b3 bc 5b 0d 04 3a
       0.0074622384 -0.0024650376 -0.02195799 0.00050373905
000330 06 d1 08 bd 5a dd 82 bb db d1 1e bc 3f a4 da 3a
       -0.033402465 -0.0039936723 -0.009693588 0.0016681029
000340 49 18 46 bc 68 cf e4 3b 24 dd 92 3c ba a6 2f bb
       -0.012090751 0.0069827326 0.017927714 -0.0026802258
000350 51 40 17 3c cf 9a de 3b fc 97 42 bc 8f 8e 49 bb
       0.009231643 0.006793357 -0.011877056 -0.0030755138
000360 35 19 6e 3c 11 d0 bc 3c 75 f3 b5 bc 1f dc 96 bc
       0.014532377 0.023048433 -0.022210816 -0.018415509
000370 69 ab 91 bc f6 04 00 3d c2 8d a7 bc 56 ea f5 3b
       -0.01778193 0.03125473 -0.020453338 0.0075047417
000380 49 fd 80 bc 5e 16 51 ba e3 c8 ed bc 8d 31 2a bc
       -0.015745776 -0.000797605 -0.029026454 -0.01038779
000390 7a 99 22 3d 3e f3 2d 3b 29 ae e9 3c 33 74 c0 3c
       0.039697148 0.0026542689 0.028525429 0.023492908
0003a0 2e 92 40 3d c0 85 9c 3c 2c 7e 1f 3d 39 cb 74 3b
       0.047014408 0.019106746 0.038938686 0.0037352575
0003b0 d1 93 8b bc 65 5d 8b bc 10 ee 73 3c df 73 31 3d
       -0.017038258 -0.017012307 0.0148883015 0.043323394
0003c0 04 8f 25 3d 31 50 bb bb b4 b7 2e 3c 8e 3f b7 3c
       0.040419593 -0.0057163467 0.010663915 0.022369172
0003d0 a5 32 dd 3c 14 4f 31 3c 84 e5 c7 bc ec 2f 34 bc
       0.027001688 0.010822076 -0.024401434 -0.010997754
0003e0 ad 83 90 3c fb a4 09 3d d4 ba 42 bc 7b a6 e3 3c
       0.017640913 0.033604603 -0.011885364 0.027789345
0003f0 2a c9 14 3c 15 97 fd 3b ee 88 15 bc d3 99 14 3d
       0.009081164 0.0077389576 -0.009126885 0.03627951

layer1.bias f4 [32]
000000 d2 dd 00 3d fe 82 3c bc 44 33 73 3c 32 57 cb 3b
       0.031461544 -0.01150584 0.014843766 0.006205463
000010 54 01 ce 3b b2 e6 94 bc db d0 ed 3c 2d 3c 9a 3b
       0.0062867794 -0.01817641 0.029030254 0.0047068805
000020 9b a8 07 bc 05 fe dd 3c b2 91 ab bc a0 c6 b2 3c
       -0.008279945 0.027098665 -0.020943496 0.021823227
000030 39 96 09 3c ab 0b 63 bc 7a ee 00 3a cb d9 ca 3c
       0.008397632 -0.013857762 0.0004918348 0.024762055
000040 58 87 e4 bc 68 67 18 3c 28 f4 38 3b a6 84 d1 3c
       -0.027896568 0.009301998 0.00282217 0.025575947
000050 57 93 33 bb e1 89 da bb 2f fd e9 3b d7 7f c9 3c
       -0.0027401054 -0.0066692685 0.0071407775 0.024597092
000060 4a ea 44 bc 2a 04 a1 3c 5d 9d b4 bb d7 61 40 ba
       -0.0120187495 0.019655306 -0.005511923 -0.0007338798
000070 de 4f 9e 3c 34 a1 e3 3c 4e 74 7b 3c e2 fe 40 3c
       0.019325193 0.027786829 0.015347553 0.011779519

layernorm1.weight f4 [32]
000000 f1 c9 7d 3f eb e9 7f 3f a4 be 82 3f 4c 6f 84 3f
       0.99136263 0.99966305 1.0214429 1.0346465
000010 c8 72 81 3f 83 56 7c 3f f8 cb 7f 3f 43 b5 80 3f
       1.0113153 0.98569506 0.99920607 1.0055317
000020 16 05 7d 3f b6 d8 83 3f 9d 47 80 3f ec 88 7d 3f
       0.98835886 1.030051 1.0021855 0.9903705
000030 2e 72 83 3f 28 ed 79 3f 7d 4d 7d 3f 00 d8 7d 3f
       1.026922 0.97627497 0.9894636 0.99157715
000040 4f 64 7f 3f 3c d0 86 3f 20 b9 84 3f ee 79 77 3f
       0.99762434 1.0532298 1.0368996 0.96670425
000050 de 27 7f 3f ca 46 81 3f 0e cd 6e 3f f5 7f 8c 3f
       0.9967021 1.0099728 0.9328164 1.0976549
000060 4e 90 7d 3f a2 e6 86 3f 55 86 83 3f 89 18 85 3f
       0.99048316 1.0539134 1.027537 1.0398113
000070 9b 62 7d 3f 71 df 8d 3f cf 4a 7d 3f 67 9c 82 3f
       0.98978585 1.1083814 0.98942274 1.020398

layernorm1.bias f4 [32]
000000 20 62 96 3c 22 5d 09 3c 34 0f f1 38 98 b4 a3 3b
       0.018357337 0.008384021 0.00011494607 0.0049958937
000010 d9 95 80 3c 1e 29 a5 bd e0 91 70 3c 15 d6 50 3a
       0.015696453 -0.08064483 0.014683217 0.0007966471
000020 7a 4d 27 3c c2 dc 3f 3d e6 c9 60 3d 86 68 15 3d
       0.010211343 0.04684139 0.054880045 0.036476634
000030 94 9c 9e 3c 39 32 b6 bb 28 6f 96 3c 75 53 33 3d
       0.019361772 -0.005560186 0.01836355 0.043780763
000040 94 fb af 3b 18 f3 81 3c 58 17 43 3d 0c a0 5b bd
       0.0053705666 0.015862986 0.047629684 -0.05361943
000050 eb 43 80 bc f5 fd a9 3c d9 29 f1 bb 4c e6 21 3d
       -0.015657386 0.020750979 -0.007359725 0.03952627
000060 6f ce b8 bc d7 b3 08 3d 84 85 a6 3c 30 02 ab 3c
       -0.022559373 0.033374634 0.020327337 0.020875067
000070 b5 8f 67 bc 00 e9 d1 3c 36 11 8b bc 6e 0f 05 3d
       -0.0141333835 0.025623798 -0.01697598 0.032485418

blocks.0.fcn_layer.weight f4 [32, 32]
000000 e5 34 7b bd 2e 5d 0b 3e ba 32 24 3e 1d e7 bc bc
       -0.06132974 0.13609764 0.16034976 -0.023059422
000010 7a d0 c3 bd f2 41 49 3e e2 3a bf 3c fd 48 db bd
       -0.09561248 0.19654062 0.023343507 -0.10707281
000020 e3 51 ed 3d 3c e8 cd bd 77 fe 2e 3e 33 d0 2a 3e
       0.11587884 -0.10054061 0.17089258 0.16680984
000030 da 27 25 be 25 1d 8d 3d 3c 9b bc 3c a7 e9 a1 bd
       -0.16128483 0.068903245 0.02302324 -0.07905894
000040 77 30 45 3e 36 6b cd 3d 2e 1d 32 bd 5f 00 13 3e
       0.19256769 0.100302145 -0.04348486 0.1435561
000050 be 4c 8d 3d 47 56 11 bd 89 3c c4 3d 61 9f 0f 3e
       0.06899403 -0.03548267 0.09581859 0.14025642
000060 a1 be 45 3e 88 d6 c2 3c 60 5f 01 be 1c 1d 5b 3d
       0.19311 0.023783937 -0.12634039 0.053494558
000070 0a ce c3 bc 17 18 ce bc 98 e6 88 bd b1 70 66 bd
       -0.023901958 -0.025157971 -0.06684607 -0.056259815
000080 1f 76 a8 3c 27 5c 1b 3e 57 2b 01 be 36 b2 ec 3d
       0.020564137 0.15171872 -0.12614189 0.115574285
000090 c4 f2 93 bd dd 94 b1 bc 42 dc 6d be 56 86 e2 bd
       -0.07224038 -0.021677429 -0.23228553 -0.11060779
0000a0 31 57 49 3e 98 c0 30 3c 1d 91 25 bd 36 86 c6 bd
       0.19662167 0.010788105 -0.040421594 -0.096935675
0000b0 9c 87 6f bc 69 5f a5 3d d1 93 08 be d8 9f a3 bd
       -0.014619734 0.08074839 -0.13337637 -0.07989472
0000c0 56 67 c4 3d af 01 a3 3d 6f ad 47 3e e4 01 6b 3d
       0.09590022 0.079593055 0.19499753 0.05737485
0000d0 58 92 11 3e f2 22 00 3d bc 3f ad bc d5 5d 9d bd
       0.14215982 0.031283326 -0.021148555 -0.07683913
0000e0 57 62 54 3e a4 c2 26 bd 6d 29 83 bd 9b 6a 4b be
       0.20740639 -0.040712968 -0.06404386 -0.19864886
0000f0 87 e0 ab bd 31 ce d8 3c 60 c1 0a 3c a2 5c cf 3d
       -0.083924346 0.026465507 0.008468956 0.1012509
000100 d8 ba 6c bd 20 ce ce 3d eb a8 d6 3d ce 3b 07 3d
       -0.057795376 0.10097909 0.10481437 0.03301602
000110 b7 b7 0f 3e 19 6a 1b 3e 72 92 04 bd c9 a2 ec 3b
       0.14034925 0.15177192 -0.032366224 0.007221554
000120 6f 3e 11 bd 2e f0 f6 bd df cb 70 3d 11 a6 2b 3e
       -0.035459932 -0.120575294 0.058788177 0.16762568
000130 c7 dd c0 bc d9 99 58 bd a7 c2 6b bd c0 81 3f 3e
       -0.023543252 -0.052881096 -0.05755868 0.1870184
000140 ca 92 41 bd 3a 40 c2 bd 19 ad a6 3d ba a4 b7 bd
       -0.04725913 -0.094849065 0.081384845 -0.08966966
000150 ed c3 0a 3e 4e 14 35 3e 13 cb 9d 3d fc 68 4d be
       0.13551302 0.17683527 0.07704749 -0.2005958
000160 f9 5c 1c 3e 7e 98 c6 bd 9f 43 44 bd 30 37 19 3d
       0.15269841 -0.09697054 -0.04791605 0.037406147
000170 45 df 5e 3d ad a7 4f be d8 ac 09 3e 1a 9c 24 3e
       0.054412145 -0.20278807 0.13444841 0.16075173
000180 e2 a2 a5 bd 13 23 32 be 26 a4 43 be 6d ec 05 bd
       -0.08087708 -0.17396192 -0.19105586 -0.032696176
000190 9d fa a8 bd 7f 71 9a bd ef 91 83 3c a4 12 70 bd
       -0.08250926 -0.07541179 0.016060797 -0.058611527
0001a0 cf 7e 68 3b f4 f4 37 3d 76 0e 5a be 02 08 d9 3d
       0.0035475974 0.04491134 -0.21294579 0.105972305
0001b0 33 60 d7 bd b0 3b c7 3d 44 d6 d9 3d aa 59 5a 3c
       -0.105163954 0.09728181 0.10636571 0.013327042
0001c0 92 e8 98 3d 28 a1 35 3e f3 ad 06 be e0 ec 5a bd
       0.07466234 0.17737257 -0.13152294 -0.053448558
0001d0 89 ae 23 be 32 f8 44 bc d2 6f cf bc 3b 6a f9 3d
       -0.15984549 -0.012022065 -0.025321875 0.12178465
0001e0 dd f4 46 bd 7e 0a 77 be 0f 73 3d 3e 8b 20 d5 3d
       -0.048573364 -0.24125096 0.18500923 0.10406598
0001f0 d6 56 be 38 c5 d9 02 3e 20 77 81 bc 0b d1 14 bd
       9.0760805e-05 0.12778385 -0.015803874 -0.03633217
000200 42 53 1e 3e 59 17 4b be 89 d5 4b 3d b6 0e 95 3c
       0.15461448 -0.19833125 0.04976419 0.018195491
000210 f6 ca 94 3d 20 91 94 3d b7 c4 22 bd f6 c0 da 3d
       0.07265274 0.07254243 -0.039738383 0.10681336
000220 8f 58 f6 bd 96 34 29 be 2a 4e ec 3d 6b 90 9f 3d
       -0.1202861 -0.16523966 0.11538346 0.077912174
000230 3e ca da bd 3d ee ea bd 82 e1 5f 3d 77 5c 02 be
       -0.10683106 -0.114712216 0.05465842 -0.12730585
000240 54 c0 db bd 8b 62 0d 3e bd 4a dd bd 8e 1a 9e bd
       -0.10730043 0.13807122 -0.10805271 -0.07719909
000250 fc f8 ea bc 30 95 8f bd 52 93 39 3d e1 fc 93 3d
       -0.028683178 -0.07010877 0.04530651 0.07225967
000260 4d b2 b9 3c d7 c5 f0 bc ab b6 5a 3e 26 30 cd 3d
       0.022668028 -0.029391212 0.21358745 0.10018949
000270 cd d8 18 be 01 9c 7c 3e db 0a 03 be 32 db 3d 3e
       -0.14926453 0.24668886 -0.1279711 0.18540648
000280 4e 51 57 bd a3 1e f4 3c fb f3 13 be b1 71 2b bd
       -0.052567773 0.029799765 -0.1444854 -0.04185647
000290 d3 1e bc 3d f1 0a b4 3d 83 5a 01 3d 2a ac be ba
       0.09185567 0.087911494 0.03158046 -0.0014547158
0002a0 a2 b3 0f be 06 db e5 bd 55 1f 85 3d 1b 96 b2 3d
       -0.14033368 -0.11223416 0.06500117 0.087200366
0002b0 1d ef 3d be 18 a1 47 bd a3 8e 4e bd be 3d b9 3d
       -0.18548246 -0.048737615 -0.050428998 0.090449795
0002c0 de 9a 17 bd 62 af 4e 3e 1a e5 31 3d 73 2a c7 3c
       -0.037012927 0.2018409 0.04343138 0.024312234
0002d0 87 9b 3b bd 00 a0 8f 3d 45 ac ba bd cd 8c 3d 3e
       -0.04580262 0.070129395 -0.09114889 0.18510742
0002e0 12 2f ec 3d 1a db 9e bd 3c 5c 2d bc 93 ea 17 3e
       0.115324154 -0.07756634 -0.010581072 0.14835577
0002f0 47 31 61 3d a6 2a 83 3e 36 db cc 3b 15 32 eb 3d
       0.054978635 0.25618476 0.006251718 0.11484162
000300 f9 56 bf 3d 87 1d 36 bc fe 8c 4c 3c ca 62 1d 3e
       0.093427606 -0.011115438 0.012484787 0.15369716
000310 d1 16 e4 3b b4 79 07 be eb 09 b5 bc 9f 3c 6e bd
       0.0069607277 -0.1323002 -0.022099456 -0.05816328
000320 7d 84 03 3d 1e 97 04 be 18 74 3a 3e 2a 58 ba 3c
       0.032108773 -0.12948272 0.18208349 0.022747118
000330 ec 01 12 be 18 1d b7 bc 5e ed 8e 3d a2 cd 73 bb
       -0.14258546 -0.02235274 0.06978868 -0.0037201424
000340 4b 64 bb bd 44 e3 05 3d 37 2d ca bc c5 39 00 3d
       -0.09149989 0.03268744 -0.024679763 0.031305093
000350 30 77 fb 3d 67 38 b9 3c 5e 4e 9f 3d 4c c7 ea bd
       0.122785926 0.022609903 0.07778619 -0.11463794
000360 7d 53 c4 3d 22 7c 9e 3c ae a7 84 3d f0 5f 48 bd
       0.095862366 0.0193463 0.06477295 -0.048919618
000370 c8 5a 22 3e 19 e3 3d bd 64 b8 ab bd 11 aa 3a 3e
       0.15854943 -0.046359155 -0.08384779 0.18228938
000380 c6 6f a2 bd 8d db bd 3d db 51 27 3e 40 d4 fd 3d
       -0.07931475 0.092703916 0.16339819 0.12393999
000390 10 03 24 3d 6d c5 9d 3d 78 9f c0 bd f3 22 37 be
       0.040041983 0.077036716 -0.09405416 -0.17884426
0003a0 3f 99 21 3d 80 40 f5 3d aa 0c 1d 3e 96 cd 9f 3d
       0.039452787 0.11975193 0.15336862 0.07802884
0003b0 e8 d6 2b 3d b9 d2 60 bd d2 38 bc 3c 0b db 1f 3d
       0.041952997 -0.05488846 0.022976313 0.039027255
0003c0 99 fb a7 bd 95 58 ff bd 81 0a e5 bc 84 2a cb 3d
       -0.08202285 -0.124680676 -0.02795911 0.099202186
0003d0 03 75 9f bc bb cc 83 3d 72 42 9a 3d b9 a2 b1 3c
       -0.019464975 0.064355336 0.07532205 0.021684038
0003e0 63 94 bb 3c 5d 62 40 3e 80 70 ac 3d c0 0c e0 3c
       0.022897905 0.18787523 0.08419895 0.02734983
0003f0 1f 87 db 3d 93 95 4c be 20 ef 1b 3e c8 41 c4 bc
       0.10719132 -0.19978933 0.15227938 -0.023957148

blocks.0.fcn_layer.bias f4 [32]
000000 6b 88 00 be 00 1c 9b 3d 64 ab e8 3d be 29 9d bd
       -0.1255204 0.075737 0.11360815 -0.07673977
000010 52 23 3f 3e fd db b6 3c 28 f6 22 be 40 7e 17 be
       0.18665817 0.022321695 -0.15914214 -0.14794254
000020 c7 c5 10 be e1 d2 0c 3e 53 bb 01 3e 0b 88 cc 39
       -0.14137946 0.13752319 0.12669115 0.00039011272
000030 a4 30 05 3e e7 ec 1d 3e 64 a6 8d bd e3 b6 e5 3d
       0.13006836 0.15422402 -0.06916502 0.112165235
000040 c0 56 cc bd 32 cc 77 3d e1 0e aa 3c 6f 3a ea 3d
       -0.09977484 0.06049747 0.020759048 0.114369266
000050 01 6c 03 be bf b7 c8 bd a9 b7 27 be 83 03 ef 3d
       -0.12834169 -0.09800672 -0.16378655 0.11670592
000060 d1 e3 28 bd 5d 53 55 bd c6 aa 9d bd 9d b8 9c bd
       -0.041232888 -0.052081455 -0.07698588 -0.076524
000070 63 d1 e1 bd 05 d0 e1 3d 00 05 70 3d f1 d2 2a bb
       -0.110262655 0.11026005 0.05859852 -0.0026065672

blocks.0.layer_norm.weight f4 [32]
000000 ce 23 88 3f 8c a4 88 3f 30 05 90 3f ea d2 9b 3f
       1.0635927 1.0675216 1.1251583 1.2173741
000010 67 8e 9c 3f c2 46 9c 3f 90 96 70 3f 15 85 87 3f
       1.2230958 1.2209094 0.9397974 1.0587488
000020 df 53 91 3f 39 82 a1 3f 87 32 9b 3f ee ca 9e 3f
       1.135372 1.2617866 1.2124795 1.2405679
000030 7c a6 a1 3f 77 70 66 3f 3b 13 9f 3f 47 d1 83 3f
       1.2628932 0.9001536 1.2427744 1.0298241
000040 53 e0 91 3f 61 40 87 3f 40 2b 88 3f e1 c1 88 3f
       1.1396583 1.0566522 1.0638199 1.0684167
000050 63 d1 8d 3f e2 24 8f 3f 79 ef a2 3f 0e 22 85 3f
       1.1079525 1.1183131 1.2729331 1.0401018
000060 b4 78 68 3f 88 3c 83 3f 81 61 86 3f b0 1d a3 3f
       0.9080918 1.0252848 1.0498506 1.2743435
000070 7f 1c 8a 3f 3a a8 90 3f 8a 3a 9e 3f fd 25 69 3f
       1.0789946 1.1301339 1.2361615 0.9107359

blocks.0.layer_norm.bias f4 [32]
000000 20 70 74 3d b2 a9 23 3c 78 1f 98 3d e0 c7 5d 3e
       0.059677243 0.009989189 0.07427877 0.21658278
000010 2c 55 60 3e 6b 1c 61 3e ed 43 ba bd 7c 53 91 3d
       0.2190749 0.21983497 -0.09094987 0.070960015
000020 7f c2 99 3d 60 42 6a 3e 74 9b 52 3e ac 51 71 3e
       0.075078 0.22876883 0.20567113 0.23566312
000030 3e 8b 69 3e a8 1a d5 bd e3 b4 68 3e 8a 09 b7 3c
       0.22807023 -0.10405475 0.22725253 0.022343416
000040 e5 a2 b6 3d f6 ee 65 3d 76 61 35 3d 5d 9c a4 3d
       0.089177884 0.056136094 0.0442824 0.080376364
000050 7b 34 95 3d fb ef 64 3d 0a 50 76 3e d0 20 ca 3c
       0.072854005 0.055892926 0.2405397 0.02467385
000060 45 18 91 bd 73 9a 22 3d 65 f6 35 3d 33 26 7c 3e
       -0.07084707 0.039698076 0.044424433 0.24623947
000070 8c b2 6c 3d 26 92 be 3d 8e 44 62 3e 7f 55 ea bd
       0.057787463 0.09305219 0.22096464 -0.11442088

last_layer.weight f4 [1, 32]
000000 4e 38 72 3e c4 b5 40 3e 40 86 eb 3d 52 fa b0 be
       0.23654291 0.18819338 0.115002155 -0.3456598
000010 f3 7d be be 5a 70 af be 49 42 8d 3d d4 27 68 3e
       -0.37205467 -0.34265405 0.068974085 0.22671443
000020 80 ec 35 3e 1c b4 9a be 65 96 b4 be 5f 32 8f be
       0.17765999 -0.30215538 -0.35270992 -0.27968118
000030 c5 bd ab be 72 db 95 3b c8 57 bc be bc e6 2f 3e
       -0.3354322 0.004573279 -0.36785722 0.17177862
000040 1a b2 97 3e ea c9 a3 3d d1 8c 07 3e 37 9e ab 3d
       0.29628068 0.079974964 0.13237311 0.083797865
000050 cd a8 1a 3e 1a e4 27 3e c2 da 9e be b9 af 07 3d
       0.15103455 0.16395608 -0.31026274 0.033126567
000060 44 ce d4 bc f1 db 3e 3d 0e 26 8f 3d 04 01 9b be
       -0.025977261 0.04659647 0.0698968 -0.30274212
000070 48 27 38 3e 24 ba e2 3d 90 bd b7 be 26 22 8d 3d
       0.17983735 0.1107066 -0.35886812 0.06891279
